autoencoder.pth (torch, 16005 bytes, 8 tensors)

encoder.0.weight f4 [32, 30]
0	0x3e744d8b	0.23857705
1	0x3e5df5a4	0.21675736
2	0xbc02856c	-0.007966381
3	0x3da06ae8	0.07832891
4	0xbdcbafa1	-0.09945608
5	0x3dfb83e1	0.12281013
6	0xbe274de4	-0.16338307
7	0x3e2d2793	0.16909628
8	0x3e2b12ec	0.16706437
9	0xbe0bc22d	-0.13648291
10	0x3e356663	0.17714839
11	0xbd5db4c1	-0.05412746
12	0x3e632fc0	0.22186184
13	0xbd5a86a3	-0.053351056
14	0x3cdc191c	0.026867442
15	0xbdc81420	-0.097694635
16	0x3e1e143e	0.1543741
17	0xbcb24e04	-0.021765716
18	0xbab3f3b9	-0.0013729251
19	0x3dadc1de	0.08484243
20	0xbe0dfd6e	-0.13866207
21	0x3b163629	0.0022920466
22	0xbac7e6aa	-0.0015251238
23	0x3e1d2da5	0.15349443
24	0xbe15799a	-0.14597169
25	0xbe136d20	-0.14397097
26	0xbdbf032a	-0.09326775
27	0xbda5dddd	-0.08098958
28	0xbbb61525	-0.00555672
29	0xbdb88112	-0.09008993
30	0x3e0a24c7	0.13490592
31	0xbe273435	-0.16328509
32	0x3e4414a7	0.19148503
33	0x3d7deac6	0.061991476
34	0xbd4d2cd1	-0.05009157
35	0x3dd71083	0.10501196
36	0x3d31f64b	0.043447774
37	0x3de564bb	0.112008534
38	0x3cf261ba	0.029587615
39	0xbd892bfe	-0.06697844
40	0x3d4ab946	0.049493097
41	0xbcbf19fb	-0.023327818
42	0x3d77d810	0.060508788
43	0x3e3e8fba	0.18609515
44	0x3dfc4e6f	0.123196475
45	0xbd6a29e6	-0.057168864
46	0x3ddf8a92	0.10915102
47	0x3d0bb166	0.034104727
48	0x3d82c84d	0.063858606
49	0xbdf0939c	-0.11746904
50	0xbe3f52b0	-0.18683887
51	0xbd9bcd7a	-0.07607551
52	0xbe2074db	-0.15669577
53	0x3e166cbb	0.14689915
54	0x3d5bd057	0.053665485
55	0x3dc6522e	0.09683643
56	0x3d9c33a3	0.076270364
57	0xbcee3248	-0.02907671
58	0x3e22bfe8	0.15893519
59	0xbe2ef39f	-0.17085122
60	0x3decd4f4	0.11564055
61	0xbd8760bf	-0.0661025
62	0x3d91a76f	0.071120135
63	0xbe1faf35	-0.1559418
64	0x3ab92ab4	0.0014127106
65	0x3d5598b5	0.052147586
66	0x3d9556bd	0.07291935
67	0xbd21b391	-0.03947789
68	0xbdd69893	-0.1047832
69	0xbde17653	-0.11008897
70	0x3e3cfb94	0.18455344
71	0xbcf85c9e	-0.0303176
72	0x3e867fc8	0.26269364
73	0xbe691ee0	-0.22765684
74	0xbe7e44b3	-0.24830894
75	0xbe5cbf12	-0.21557263
76	0xbdebc5d8	-0.11512345
77	0x3cd2cff9	0.025733935
78	0x3e1a4460	0.15065145
79	0x3e49be80	0.19701576
80	0xbe0aef7f	-0.13567923
81	0xbdbf0851	-0.09327758
82	0x3e277ebf	0.16356944
83	0xbd0f7acd	-0.03502922
84	0x3ddebfb2	0.10876407
85	0xbdf065eb	-0.11738189
86	0x3d8467e1	0.06465126
87	0xbde7030c	-0.11279878
88	0xbdf8f25e	-0.12155603
89	0x3e1d0275	0.15332969
90	0xbb665fb9	-0.003515227
91	0xbd948b0d	-0.07253084
92	0x3dec5473	0.11539545
93	0x3e27acb5	0.16374476
94	0xbde649a9	-0.11244518
95	0xbe0530e1	-0.13006927
96	0x3e49f9db	0.19724219
97	0xbdb4e8a0	-0.08833432
98	0xbd8ffe6b	-0.07030948
99	0xbe39d99d	-0.18149419
100	0xbde85afc	-0.11345479
101	0x3daa722c	0.08322558
102	0xbd674081	-0.056458
103	0xbdd353ab	-0.10318693
104	0x3d01887f	0.031624313
105	0xbdc06445	-0.09394125
106	0xbe20c214	-0.15699035
107	0xbdb0111e	-0.08597015
108	0xbe498efd	-0.19683452
109	0xbe08381b	-0.13302653
110	0x3e49a567	0.19692002
111	0x3cd1ef96	0.025626939
112	0x3cdb2739	0.026752101
113	0xbe3bbd51	-0.18333937
114	0xbdf889ab	-0.12135633
115	0xbd056fad	-0.032577205
116	0x3d3f8635	0.04675885
117	0xbe33616e	-0.17517635
118	0xbd87935b	-0.06619903
119	0xbe1a5f07	-0.15075313
120	0xbbb4358d	-0.005499548
121	0xbd976ede	-0.07394193
122	0xbc98d6d4	-0.018657126
123	0xbdf11318	-0.1177122
124	0xbdf45a23	-0.11931255
125	0xbde670ac	-0.11251959
126	0xbd676138	-0.0564892
127	0xbe19b5da	-0.15010777
128	0x3e169b7c	0.1470775
129	0xbcf7a2a2	-0.030228917
130	0x3e1ab4ec	0.15108079
131	0x3d80cdae	0.0628923
132	0xbe24769d	-0.16060872
133	0x3e07879a	0.13235322
134	0xbd352954	-0.044228867
135	0xbd8307ec	-0.06397995
136	0xbe215612	-0.1575549
137	0xbe33b6f6	-0.17550263
138	0x3d3d5ca8	0.046230942
139	0xbd3bf4ba	-0.045887686
140	0x3d9ddf2e	0.07708584
141	0xbe134742	-0.14382651
142	0x3e04a6e8	0.12954295
143	0xbe0f62a3	-0.1400247
144	0xbcd10fb7	-0.025520189
145	0x3d34cbd1	0.044139687
146	0x3dcd54fa	0.100259736
147	0x3e10c82b	0.14138858
148	0x3e2428e1	0.16031219
149	0xbe1a641f	-0.15077256
150	0x3e0ea452	0.1392987
151	0xbc8b1ab0	-0.016980499
152	0x3c341061	0.010990233
153	0xbe64040e	-0.22267172
154	0x3de310db	0.11087199
155	0xbd5f0f78	-0.05445811
156	0x3cf1e6f7	0.029529078
157	0x3df7b29f	0.12094616
158	0x3d7c87ee	0.06165307
159	0xbdcd0c1e	-0.10012077
160	0x3e38edcd	0.18059464
161	0xbd29d536	-0.0414631
162	0x3dda4a8e	0.106587514
163	0xbe7333b2	-0.23750189
164	0x3ca0deb7	0.019637449
165	0xbdc44d82	-0.09585096
166	0xbd8fdcfd	-0.07024572
167	0x3ddcf97e	0.10789774
168	0x3df4e87e	0.11958407
169	0xbd8015ee	-0.06254183
170	0xbe11f544	-0.14253718
171	0x3c7b1dff	0.015326976
172	0x3e2e6dc8	0.17034066
173	0xbc43f019	-0.011959099
174	0xbdd94047	-0.10607963
175	0xbdf6c95e	-0.120501265
176	0xbe379412	-0.17927578
177	0x3dc32aa1	0.09529615
178	0x3ddf7e76	0.109127924
179	0xbdbb5024	-0.09146145
180	0x3e1290ed	0.14313097
181	0x3e1c64d7	0.15272842
182	0x3d3208f2	0.043465562
183	0xbe1fab8f	-0.15592788
184	0x3d2bcf01	0.04194546
185	0x3e3a2396	0.18177637
186	0xbbb934aa	-0.00565203
187	0x3d0abcc7	0.03387144
188	0xbd2d8f76	-0.042373143
189	0x3c875e6b	0.016524514
190	0xbc442e85	-0.011973982
191	0xbe146ced	-0.14494677
192	0x3e4d9a94	0.20078498
193	0x3daa346b	0.08310779
194	0xbdaa7154	-0.08322397
195	0xbde438b5	-0.111436285
196	0x3c446b4d	0.011988473
197	0xbd647d04	-0.055783287
198	0x3e01e839	0.12686242
199	0x3dc3b336	0.09555666
200	0xbe592794	-0.21206504
201	0xbd2d314b	-0.042283338
202	0x3e62f626	0.2216421
203	0x3de16352	0.11005272
204	0xbc376621	-0.011193783
205	0xbe36946f	-0.1783006
206	0xbe1ad3e1	-0.15119888
207	0xbe08ff1d	-0.13378568
208	0xbdb7a490	-0.08966935
209	0x3e20c152	0.15698746
210	0x3e3cf185	0.18451507
211	0x3dfbc546	0.12293486
212	0xbe0f7ffc	-0.14013666
213	0xbe2b7c6a	-0.16746679
214	0xbd87bb57	-0.06627529
215	0x3e781bed	0.24229403
216	0xbcd16130	-0.025559038
217	0x3b96f429	0.004606743
218	0x3da54808	0.080703795
219	0xbd87a7ab	-0.06623777
220	0xbded2f3f	-0.11581277
221	0x3d8ca688	0.06867701
222	0xbcd25a27	-0.025677754
223	0xbda840e8	-0.08215505
224	0xbe653568	-0.22383654
225	0x3d999f89	0.07501132
226	0x3e14506a	0.144838
227	0x3c9fd58a	0.019511003
228	0xbd971a44	-0.07378057
229	0xbe1195c7	-0.14217292
230	0xbe393e07	-0.18090068
231	0x3e2da52a	0.16957536
232	0x3e0b0ad6	0.13578352
233	0x3e459393	0.19294576
234	0x3dc904af	0.098153464
235	0x3b4eb9f7	0.003154395
236	0xbd01d009	-0.03169254
237	0xbe077962	-0.13229898
238	0xbe429e63	-0.19005732
239	0xbde156a3	-0.11002853
240	0x3df01464	0.11722639
241	0xbd89a53e	-0.067209706
242	0xbc61924c	-0.01376779
243	0xbe15bd73	-0.1462305
244	0xbd510b02	-0.05103589
245	0xbdc44dca	-0.095851496
246	0xbe157161	-0.14594032
247	0x3dc0458a	0.093882635
248	0xbd80a970	-0.06282318
249	0x3dd958b5	0.10612623
250	0xbd67d60b	-0.05660061
251	0xbe2f7c1a	-0.17137185
252	0x3c0998fa	0.008398289
253	0xbdf57358	-0.11984891
254	0xbda9454b	-0.0826517
255	0xbe4792b9	-0.19489564

encoder.0.bias f4 [32]
0	0xbd1b5cfd	-0.037930477
1	0xbcf06134	-0.029343225
2	0xbd1ae74f	-0.03781825
3	0xbda811c9	-0.08206517
4	0xbd663b38	-0.05620882
5	0x3e808535	0.2510163
6	0x3e20d39f	0.15705727
7	0x3d12dcfd	0.035855282
8	0x3d95b6ac	0.073102325
9	0x3d1f52b6	0.03889724
10	0x3d671674	0.056417897
11	0x3e2f78b2	0.17135885
12	0x3d48d33f	0.049029585
13	0xbd91be04	-0.07116321
14	0x3e1f806a	0.1557633
15	0x3d5fe19c	0.054658517
16	0xbe14118f	-0.14459823
17	0x3e5d225c	0.21595138
18	0x3e186134	0.1488083
19	0x3e6d7fb1	0.23193242
20	0x3dfa5d2f	0.122248046
21	0x3e004bc1	0.12528898
22	0x3dbde829	0.09272797
23	0x3e59308b	0.21209924
24	0xbcaeb80e	-0.021327998
25	0x3d594da1	0.05305255
26	0xbcaf7a8d	-0.021420741
27	0x3d0b5d41	0.03402448
28	0x3e2ecf98	0.17071378
29	0xbd1a7dca	-0.037717618
30	0x3daff1c1	0.08591033
31	0x3e3da319	0.18519248

encoder.2.weight f4 [16, 32]
0	0xbcf36415	-0.029710809
1	0xbe18042e	-0.14845344
2	0x3e10d70f	0.14144538
3	0xbdb63825	-0.088974275
4	0xbc9f1795	-0.019420424
5	0x3c889964	0.016674705
6	0xbc2e0f21	-0.010623724
7	0xbe2a4848	-0.16629136
8	0x3da61a73	0.081105135
9	0xbda4730a	-0.080297545
10	0xbdbbc65b	-0.09168693
11	0x3d2cfe46	0.04223468
12	0xbdbcef2a	-0.092253044
13	0xbda751d5	-0.08169905
14	0xbd73fa52	-0.059564896
15	0xbd880283	-0.06641104
16	0xbd97336f	-0.07382857
17	0xbd4345ff	-0.047674175
18	0x3d3c2b8f	0.04593998
19	0xbe127bed	-0.14305086
20	0xbddb2287	-0.10699945
21	0x3b290ba4	0.0025794292
22	0x3cc96464	0.024584003
23	0x3dc7f384	0.09763244
24	0xbdfe4fd7	-0.12417572
25	0x3d671f8f	0.05642658
26	0x3dcdc771	0.10047806
27	0x3dc90691	0.098157056
28	0xbe289af5	-0.16465361
29	0xbd8a27cd	-0.06745873
30	0xbe1b9916	-0.15195116
31	0xbde51a2a	-0.11186631
32	0x3e43f996	0.19138178
33	0x3d63846c	0.05554621
34	0x3e381af7	0.17979036
35	0xbd85eaac	-0.06538901
36	0x3d06a112	0.032868452
37	0xbc070df7	-0.008243076
38	0x3e3fa376	0.18714699
39	0x3c67f5ab	0.014157693
40	0x3d36825b	0.04455791
41	0xbd6dda8f	-0.05806976
42	0x3c5e0bb5	0.013552596
43	0x3e85c283	0.26124963
44	0x3dafb9c5	0.085803546
45	0xbdc12997	-0.09431761
46	0x3b1bce7b	0.0023774195
47	0x3d47f74b	0.04881982
48	0xbd933341	-0.0718751
49	0x3e77ff2a	0.24218431
50	0x3b3ac306	0.002849759
51	0xbd35f593	-0.04442365
52	0xbe198a1b	-0.1499409
53	0xbe971672	-0.29509312
54	0x3ceec91d	0.029148633
55	0x3e21abfb	0.15788262
56	0xbe8de36a	-0.27712566
57	0x3c3c68fc	0.01149964
58	0x3e8be8b4	0.27325976
59	0xbcd52cbc	-0.026022308
60	0xbc243cd7	-0.010024271
61	0xbda9547f	-0.082680695
62	0x3e885ef7	0.26634952
63	0x3dbceac7	0.09224468
64	0x3d97bcd4	0.07409063
65	0x3c85d9c6	0.016339194
66	0x3d749d7d	0.059720505
67	0xbdd61b49	-0.10454423
68	0xbe09b418	-0.13447607
69	0x3e52ac3e	0.20573518
70	0x3e81b681	0.25334552
71	0x3e885336	0.26625985
72	0xbcff6b51	-0.031179102
73	0x3e482993	0.1954711
74	0xbdc3eccb	-0.09566649
75	0x3e50a439	0.20375146
76	0x3e029d83	0.12755398
77	0x3e0c15ea	0.13680235
78	0x3e0257dc	0.12728828
79	0x3e39dd66	0.18150863
80	0x3daa9972	0.083300486
81	0x3e3f09ae	0.18656036
82	0xbd8186e3	-0.06324556
83	0xbba08c41	-0.004899532
84	0xbe09bb96	-0.13450465
85	0xbe48b24e	-0.19599268
86	0xbe1d8e2f	-0.1538627
87	0x3d59f1d1	0.05320913
88	0xbec4bfba	-0.38427526
89	0x3d2a9221	0.041643266
90	0xbc107635	-0.008817245
91	0xbe22d119	-0.15900077
92	0x3de884f7	0.11353486
93	0x3deaf4a0	0.1147244
94	0x3e845f8d	0.2585415
95	0x3e4d6d29	0.20061173
96	0x3c04dc36	0.008109143
97	0xbda78f90	-0.08181679
98	0x3e30fe42	0.17284492
99	0x3e199285	0.14997299
100	0xbe1541f8	-0.14575946
101	0x3e2ab3fb	0.1667022
102	0x3e8120ad	0.25220242
103	0x3de1fdd5	0.11034743
104	0xbbdba067	-0.006702471
105	0x3e7beafe	0.24601361
106	0x3db36e33	0.08761253
107	0x3e5dec65	0.21672209
108	0xbdf4d76d	-0.11955152
109	0x3dd2afd1	0.102874406
110	0xbdf74c90	-0.1207515
111	0x3e841d85	0.25803772
112	0x3c161106	0.009159332
113	0x3e58cfc4	0.21173006
114	0x3d10fd89	0.03539804
115	0xbc765ac4	-0.015036289
116	0xbda78b48	-0.08180863
117	0x3ddeca8f	0.10878479
118	0xbd96e336	-0.07367556
119	0xbd82379e	-0.063582644
120	0xbe175e2e	-0.1478202
121	0x3e778e48	0.2417537
122	0x3d6c814b	0.05774049
123	0x3d639741	0.05556417
124	0x3d197fb1	0.03747529
125	0x3e07caa1	0.1326089
126	0x3e51cf76	0.20489296
127	0x3e25442d	0.16139288
128	0x3962e09c	0.00021636713
129	0xbd854e17	-0.06509035
130	0x3ddf9673	0.10917368
131	0xbd868c1d	-0.06569693
132	0x3e14d53d	0.14534469
133	0xbd95efe8	-0.07321149
134	0x3e33a704	0.1754418
135	0x3e87e22e	0.2653975
136	0x3e336fd5	0.1752313
137	0x3e1d2eee	0.15349934
138	0xbe21a82a	-0.15786806
139	0x3e85a3b0	0.26101446
140	0xbcf7b40e	-0.030237224
141	0xbe292560	-0.16518164
142	0x3e32b210	0.17450738
143	0x3c2c9d2c	0.01053552
144	0x3d6328f5	0.05545898
145	0x3e86ba35	0.2631394
146	0xbdfaf728	-0.122541726
147	0xbdf70cc8	-0.12062985
148	0x3d03a99e	0.03214418
149	0x3e18bf55	0.14916737
150	0x3d26c907	0.04071906
151	0xbd6b1040	-0.057388544
152	0x3e5994b7	0.21248136
153	0x3c881ddb	0.016615799
154	0x3c4be913	0.012445706
155	0xbe25bf7c	-0.16186327
156	0x3e429361	0.19001533
157	0x3d0b7bd5	0.034053642
158	0xbd74023a	-0.059572436
159	0x3e6b965f	0.23006581
160	0x3d189e6f	0.03726047
161	0x3c97a092	0.018509183
162	0xbdffe53e	-0.12494896
163	0x3c6ab205	0.01432467
164	0x3e284513	0.164326
165	0x3dd3d014	0.10342422
166	0xbe1fb3b6	-0.15595898
167	0x3e151b50	0.145612
168	0xbaf60654	-0.0018770196
169	0x3d8c4156	0.06848399
170	0x3e015bc1	0.12632658
171	0x3e09aed9	0.13445605
172	0xbe0d1c62	-0.13780358
173	0x3e1e8318	0.15479696
174	0xbdf5e338	-0.12006229
175	0xbb1b125c	-0.0023662066
176	0xbe0be694	-0.13662177
177	0xbd7363d7	-0.059421387
178	0xbc039dba	-0.00803321
179	0xbcddac9c	-0.027059846
180	0xbd0a9942	-0.033837564
181	0x3c0395d4	0.008031327
182	0x3e328f94	0.17437583
183	0x3db121c9	0.08649022
184	0x3dbe719e	0.092990145
185	0x3d5cf3a4	0.05394329
186	0x3df02d28	0.11727363
187	0xbc05a96d	-0.00815807
188	0xbb649cb5	-0.0034883444
189	0x3d150354	0.036380127
190	0xbe2e30b0	-0.1701076
191	0xbe221dce	-0.15831682
192	0x3d67f2bc	0.056627974
193	0xbd13a456	-0.036045395
194	0x3d0100c3	0.031494867
195	0xbd5dde2e	-0.054166965
196	0x3cb03a07	0.021512045
197	0x3e19b5f1	0.15010811
198	0xbcc0cee1	-0.023536148
199	0x3e3482b8	0.1762799
200	0x3e319ec0	0.17345715
201	0xbdcddfb2	-0.10052432
202	0xbe180317	-0.14844929
203	0xbddd1810	-0.10795605
204	0xbdc6678e	-0.0968772
205	0xbd8ceedd	-0.06881497
206	0xbc5a00ef	-0.013305887
207	0x3ba41a12	0.0050079906
208	0xbd707e3f	-0.058714148
209	0xbcae8538	-0.021303758
210	0xbd82f72b	-0.063948
211	0x3e31963e	0.17342469
212	0xbdf7465e	-0.12073968
213	0xbea19444	-0.3155843
214	0x3d967fa4	0.07348564
215	0x3cc62d80	0.024191618
216	0xbe309a23	-0.17246298
217	0x3e14f5fc	0.1454696
218	0x3e4a2736	0.1974152
219	0xbe04923c	-0.12946409
220	0x3e18647b	0.1488208
221	0x3e17eb1f	0.14835785
222	0xbd561cb2	-0.05227346
223	0x3e4a3f7b	0.19750778
224	0x3e6f5911	0.2337382
225	0x3dc4ccf3	0.096094035
226	0x3e453f5b	0.1926245
227	0xbc4dd38b	-0.012562643
228	0xbe17bb88	-0.14817631
229	0x3e191691	0.14950015
230	0x3e20d0e5	0.15704687
231	0xbc6f921a	-0.014622236
232	0x3e3ed254	0.18634921
233	0xbd46187a	-0.048363186
234	0x3e2933f1	0.1652372
235	0x3e8b78a3	0.27240476
236	0x3d4522da	0.04812894
237	0xbde3274a	-0.11091478
238	0x3db0319d	0.08603213
239	0x3de64e15	0.11245362
240	0x3e080643	0.13283639
241	0x3e28e0a7	0.16491948
242	0x3e09d1f0	0.13458991
243	0xbe13b84e	-0.14425775
244	0xbdcde9fe	-0.10054396
245	0x3cc8b819	0.024501847
246	0x3c9dcae3	0.019261783
247	0x3e7c1223	0.24616294
248	0xbe895759	-0.26824453
249	0x3dc8ec36	0.09810679
250	0x3e0e4381	0.13892938
251	0xbd404e96	-0.046949945
252	0x3e6654e4	0.2249332
253	0x3c9e66c3	0.01933611
254	0xbd8089fe	-0.0627632
255	0x3da6a63f	0.08137178

encoder.2.bias f4 [16]
0	0x3d8bef82	0.06832792
1	0xbda8d307	-0.08243375
2	0x3e352a70	0.1769197
3	0x3e035c30	0.12828135
4	0x3e0e93f2	0.13923624
5	0x3d4c7ee2	0.049925692
6	0xbd3f6cb7	-0.046734538
7	0x3e7eeee1	0.24895813
8	0x3d660076	0.056152783
9	0x3e5a4bb5	0.21317942
10	0x3df5586e	0.11979757
11	0x3e463627	0.19356595
12	0x3dd9d4ce	0.106362924
13	0x3d98b476	0.07456295
14	0x3e09e516	0.13466296
15	0x3d854e34	0.06509057

decoder.0.weight f4 [32, 16]
0	0x3e28544a	0.16438404
1	0x3e235635	0.15950854
2	0x3e7e5e16	0.24840578
3	0x3eb20a55	0.34773508
4	0x3e234ef1	0.15948083
5	0xbda41dc3	-0.08013489
6	0x3d05cf25	0.03266825
7	0x3e32f68c	0.17476863
8	0x3d92a149	0.07159669
9	0x3d105215	0.03523453
10	0x3e9a17b9	0.30096224
11	0x3e7cc858	0.246858
12	0xbe13b1e4	-0.14423329
13	0xbc72af1c	-0.014812257
14	0xbcc49860	-0.02399844
15	0xbd506352	-0.05087597
16	0x3d155b00	0.036463737
17	0xbbab0892	-0.0052195275
18	0xbd6c3c1b	-0.05767451
19	0xbc0e3b13	-0.008681077
20	0xbcc06fd9	-0.023490833
21	0x3e7b6dd9	0.24553622
22	0x3e13f1d9	0.14447726
23	0x3ea29f65	0.31762233
24	0x3d98aff7	0.07455438
25	0x3e03561a	0.12825814
26	0x3e2ca940	0.16861439
27	0x3dde042b	0.10840639
28	0xbe42c07f	-0.19018744
29	0xbe1762f2	-0.14783838
30	0xbd7817e0	-0.060569644
31	0x3d9a4ca2	0.07534148
32	0x3dc0e0b8	0.09417862
33	0x3e4abee2	0.19799379
34	0x3e97a84e	0.29620594
35	0x3e1e94c0	0.15486431
36	0x3c8db4b4	0.01729808
37	0xbe339647	-0.17537795
38	0xbe00c371	-0.12574555
39	0xbd39239f	-0.045199987
40	0x3dd66810	0.10469067
41	0x3e741233	0.23835067
42	0x3ea5a132	0.32349545
43	0x3c8cc786	0.017184984
44	0xbc0e3a9c	-0.008680966
45	0xbd8ca98a	-0.068682745
46	0xba6f7800	-0.0009135008
47	0x3e3e35ff	0.18575285
48	0xbbb3fd80	-0.005492866
49	0xbce32c2d	-0.027731026
50	0xbbc9ee29	-0.006162424
51	0x3d59a13d	0.053132284
52	0xbded11aa	-0.11575635
53	0xbe241758	-0.1602453
54	0x3d43258a	0.047643222
55	0xbd8d34dd	-0.068948485
56	0xbe107704	-0.14107901
57	0x3d865bc6	0.06560473
58	0xbd1bad6f	-0.038007196
59	0xbd850088	-0.06494242
60	0xbe05a310	-0.13050485
61	0xbd1d7d6c	-0.03844969
62	0xbe59aee8	-0.21258128
63	0x3c911db4	0.017714359
64	0x3b75de80	0.0037516654
65	0x3e82f057	0.2557399
66	0x3def7bb1	0.11693514
67	0x3e00e93e	0.12588975
68	0x3e30a4c9	0.1725036
69	0x3e4fce00	0.20293427
70	0xbd766b34	-0.06016083
71	0x3e82bfb3	0.2553688
72	0x3dba1f4e	0.09088002
73	0xbd7b81bd	-0.061403025
74	0x3e4609cb	0.19339673
75	0xbd77df28	-0.060515553
76	0xbd8a8186	-0.06762986
77	0xbde8b0ac	-0.113618225
78	0xbe2e2912	-0.17007855
79	0x3e9b9c45	0.30392662
80	0xbe64d172	-0.22345522
81	0x3e422f8d	0.18963452
82	0xbe241c31	-0.16026379
83	0x3d0cd84f	0.034385975
84	0x3da2b2b1	0.07944239
85	0x3e45dc92	0.19322422
86	0xbd40798b	-0.046990912
87	0x3e0bdf99	0.13659514
88	0x3d1e9fa8	0.03872648
89	0x3e5911d6	0.2119821
90	0x3da2ec73	0.07955255
91	0x3e21b6db	0.1579241
92	0xbdd9fc72	-0.10643853
93	0xbe31e5b0	-0.17372775
94	0x3e641daa	0.22276941
95	0xbdfaafac	-0.12240538
96	0xbd2e5350	-0.04255992
97	0xbd88cfab	-0.066802345
98	0x3e56ba24	0.20969445
99	0xbdbad629	-0.09122879
100	0xbe67af19	-0.22625388
101	0xbd9b3926	-0.075792596
102	0x3dec9336	0.11551516
103	0x3d8032f9	0.06259722
104	0x3e38bf96	0.18041834
105	0xbdb39634	-0.08768883
106	0x3da5fdde	0.08105062
107	0xbe84dfbb	-0.25951943
108	0x3dafaf49	0.08578355
109	0x3ddfdcbe	0.10930775
110	0x3e25246c	0.16127175
111	0xbe38896a	-0.1802117
112	0xbd88b164	-0.066744596
113	0x3d77bc70	0.060482442
114	0xbe35ead8	-0.17765367
115	0xbe4ba4a4	-0.19887024
116	0xbe764870	-0.2405107
117	0x3c64a680	0.013955712
118	0x3e1ef910	0.15524697
119	0x3d838324	0.064214975
120	0x3c79b660	0.0152412355
121	0x3db264e0	0.08710647
122	0xbe20df18	-0.15710104
123	0x3cd7e990	0.026356488
124	0xbd7e62c0	-0.062105894
125	0xbdfd8378	-0.12378591
126	0x3e5cc47c	0.21559328
127	0xbe460e1a	-0.19341317
128	0x3d1610c0	0.036637068
129	0xbe60f34e	-0.21967813
130	0xbc0af6c0	-0.008481681
131	0xbde3836c	-0.11109051
132	0x3da88604	0.082286865
133	0xbe0fc0f4	-0.1403845
134	0x3e23d9a2	0.16000989
135	0xbe4fbc4c	-0.20286673
136	0x3e19c342	0.15015891
137	0xbe404d4c	-0.18779486
138	0x3e091c20	0.13389635
139	0xbdd79604	-0.1052666
140	0xba18ac00	-0.000582397
141	0xbd3ae230	-0.045625865
142	0x3e2626d6	0.16225752
143	0x3da7cbe8	0.08193189
144	0xbe61969c	-0.22030109
145	0x3df186ad	0.117932655
146	0xbda4788b	-0.08030804
147	0x3e915f25	0.28392902
148	0x3e0de7f5	0.13858016
149	0xbd478474	-0.0487103
150	0xbda3989f	-0.079880945
151	0x3e3c46b1	0.18386342
152	0xbdfc97ad	-0.12333617
153	0x3e5c31e6	0.2150341
154	0x3e70f907	0.23532496
155	0x3e8011e4	0.2501365
156	0x3d996e20	0.07491708
157	0xbe5a6720	-0.21328402
158	0x3e38252a	0.17982927
159	0x3c8f8f14	0.01752428
160	0xbd975d94	-0.073908955
161	0x3da31e3b	0.079647504
162	0x3e93591e	0.2877893
163	0x3e997657	0.299731
164	0x3e13c9c8	0.14432442
165	0x3e07bf12	0.13256481
166	0xbe31f253	-0.17377596
167	0x3dde6df3	0.10860815
168	0xbe409f8f	-0.18810867
169	0x3e452eb7	0.19256102
170	0xbd91503c	-0.070953816
171	0x3c04cf91	0.008106128
172	0x3e3e8d0a	0.1860849
173	0x3e7a58f8	0.24448001
174	0xbe19b288	-0.1500951
175	0xbcfdd975	-0.03098748
176	0x3cfda300	0.030961514
177	0x3e535199	0.20636596
178	0x3d8709e8	0.06593686
179	0x3cfe28ee	0.031025376
180	0xbd726d5b	-0.05918632
181	0x3df619fa	0.120166734
182	0x3e9be49c	0.30447853
183	0xbc3bee01	-0.011470319
184	0x3e1ac18c	0.15112895
185	0x3e6cb66f	0.23116468
186	0x3e9d8653	0.30766544
187	0x3d87452c	0.0660499
188	0x3c9d9e00	0.01924038
189	0x3e3c153a	0.18367472
190	0x3e21d238	0.15802848
191	0x3eb65cf2	0.35617787
192	0xbd92b950	-0.07164252
193	0x3e4dda96	0.20102915
194	0x3e8be279	0.27321222
195	0xbd8624c5	-0.06549982
196	0x3e1c0add	0.15238519
197	0xbd312083	-0.043243896
198	0x3e5f4f41	0.21807577
199	0xbc002981	-0.007822395
200	0x3d428f31	0.04749984
201	0x3e81a50a	0.25321227
202	0xbdfe521b	-0.12418004
203	0xbdeb3ccf	-0.11486208
204	0xbdef904a	-0.11697443
205	0x3e29e4cd	0.16591187
206	0x3e2ba7b6	0.16763195
207	0xbd857a5a	-0.06517477
208	0x3d434388	0.047671825
209	0xbe27724f	-0.16352199
210	0xbe15dc5a	-0.14634839
211	0x3e35616a	0.17712942
212	0x3d9eb968	0.07750207
213	0xbd9820f3	-0.074281596
214	0x3d16bc00	0.036800385
215	0x3c7b2003	0.015327456
216	0x3d6fdce0	0.058560252
217	0xbdfed46c	-0.1244286
218	0xbe3c473b	-0.18386547
219	0x3e0a7a4b	0.13523214
220	0x3be9b3cb	0.0071320287
221	0x3dd64c24	0.104637414
222	0xbdc1e8dc	-0.094682425
223	0x3dd5ee47	0.104458384
224	0x3e3a4eda	0.18194142
225	0x3e8357bf	0.25652882
226	0x3e2d3246	0.16913709
227	0x3eb460ae	0.3523001
228	0x3dd5b82e	0.1043552
229	0x3d86f84e	0.06590329
230	0x3e9758bd	0.2955989
231	0x3eb2e64d	0.3494133
232	0xbd9c1da6	-0.076228425
233	0x3ea97275	0.33095136
234	0x3e4bc86c	0.19900674
235	0x3d8cd1a4	0.06875923
236	0x3e6ad728	0.22933638
237	0xbdfdda80	-0.12395191
238	0x3e2655ec	0.16243714
239	0x3eb5d359	0.35512808
240	0xbe309052	-0.17242554
241	0xbe171054	-0.14752322
242	0xbe7dac8c	-0.24772853
243	0xbd384810	-0.0449906
244	0xbe688008	-0.2270509
245	0xbdab7ae4	-0.08373049
246	0x3d9b70d4	0.0758988
247	0x3e34f5f0	0.17671943
248	0x3e0e99dc	0.1392588
249	0x3e0e19c8	0.13877022
250	0x3dd46908	0.103715956
251	0xbe1ec79c	-0.15505832
252	0xbe4b4340	-0.19849873
253	0x3c29cb60	0.01036343
254	0x3e7317dc	0.2373957
255	0x3c66a0e0	0.0140764415

decoder.0.bias f4 [32]
0	0xbd694938	-0.056954592
1	0xbd1a979a	-0.037742235
2	0x3cdab6d0	0.0266985
3	0xbe5b7b01	-0.21433641
4	0x3c87b6f9	0.01656674
5	0xbe0eba62	-0.13938287
6	0x3d814bc6	0.06313281
7	0x3e35229c	0.17688984
8	0x3ca22740	0.019794106
9	0xbdcedf69	-0.10101206
10	0xbdc2bf72	-0.095091715
11	0xbaf95d16	-0.0019024934
12	0x3e1dce64	0.15410763
13	0xbce902bf	-0.028443692
14	0x3e050915	0.12991746
15	0x3e714674	0.23562032
16	0x3dd6caa2	0.10487868
17	0x3d5c2ee0	0.05375564
18	0xbd4f2d78	-0.05058047
19	0x3dd9cb32	0.106344596
20	0x3e396641	0.18105413
21	0xbe1bc849	-0.15213121
22	0xbe1738b4	-0.14767724
23	0xbcbaf264	-0.022820659
24	0x3dc24644	0.09486058
25	0x3de7bcc7	0.11315303
26	0xbd81166a	-0.06303103
27	0xbe7dfb34	-0.24802858
28	0x3d9545a3	0.07288673
29	0xbcea1f30	-0.028579324
30	0x3d949278	0.07254499
31	0xbdad5e80	-0.0846529

decoder.2.weight f4 [30, 32]
0	0x3e750dc2	0.2393103
1	0x3da7bbcd	0.08190117
2	0x3e6d87a5	0.23196276
3	0xbdb4c1c7	-0.088260226
4	0x3e349b71	0.17637421
5	0x3d9115cf	0.07084238
6	0xbd754ae6	-0.05988588
7	0x3db37ad9	0.08763666
8	0xbe322065	-0.1739517
9	0x3e783516	0.24239
10	0x3df24a7a	0.118306115
11	0x3e004146	0.125249
12	0x3e3aa842	0.18228248
13	0xbcbb32cd	-0.022851372
14	0x3e37ee57	0.17962013
15	0x3de65589	0.11246783
16	0xbe2967f0	-0.16543555
17	0x3def82ad	0.11694846
18	0xbcd8d84d	-0.026470328
19	0xbd001cd5	-0.031277496
20	0x3e0ea953	0.1393178
21	0x3e6b6a63	0.22989802
22	0xbdc4cf4a	-0.0960985
23	0xbdbbd8c2	-0.09172203
24	0x3de0af0f	0.1097089
25	0xbd99fcc7	-0.075189166
26	0x3e24f1d8	0.16107881
27	0xbcd559db	-0.026043823
28	0x3e1da3c6	0.15394506
29	0x3e0a237a	0.13490096
30	0xbdb77b18	-0.08959025
31	0xbdd02d63	-0.10164907
32	0x3a8e47a2	0.0010855088
33	0xbcfac41f	-0.030611096
34	0xbdd75f85	-0.10516266
35	0xbe457588	-0.19283116
36	0x3d8343a8	0.06409389
37	0xbd23d2f5	-0.039996106
38	0xbd848f91	-0.064726956
39	0xbd949cfc	-0.07256505
40	0xbd0ee35d	-0.0348848
41	0x3c1f04c8	0.00970573
42	0xbdb7b1dd	-0.089694716
43	0x3d869cb9	0.06572861
44	0xbdc05101	-0.0939045
45	0xbd86b6f0	-0.06577861
46	0x3c6967ac	0.014245909
47	0xbb95e326	-0.0045741973
48	0xbd818b26	-0.063253686
49	0x3d720183	0.059083473
50	0x3e0ec1e8	0.13941157
51	0x3d0c14e6	0.034199618
52	0x3d1ba8e5	0.038002867
53	0x3d45891b	0.048226457
54	0x3d4cc47a	0.049992062
55	0x3cfd7923	0.030941552
56	0x3d69a5f6	0.05704304
57	0x3c2b3dfe	0.010451792
58	0x3d85b695	0.065289654
59	0x3e271b35	0.16318972
60	0xbcb6c8ac	-0.022312485
61	0xbc10a334	-0.008827973
62	0x3e224d05	0.15849693
63	0xbe1b8a6d	-0.15189524
64	0x3d8e277f	0.06941127
65	0x3da811bc	0.082065076
66	0x3d5a3e56	0.053282104
67	0xbd4d41ba	-0.05011151
68	0xbe44f44f	-0.19233821
69	0x3dfb4c2c	0.12270388
70	0xbde01c0e	-0.10942851
71	0x3d3e838a	0.046512164
72	0x3dcd1c7a	0.10015197
73	0xbe5e623d	-0.21717162
74	0xbd46e394	-0.04855688
75	0xbdfd772d	-0.123762466
76	0x3d8a98e4	0.06767443
77	0xbda22799	-0.07917709
78	0x3d3fd682	0.04683543
79	0x3de1c1a6	0.11023264
80	0x3e008026	0.12548885
81	0x3e2dc7e2	0.1697078
82	0x3cdb531b	0.026773026
83	0xbe2e8904	-0.17044455
84	0x3d882447	0.06647544
85	0xbcd18555	-0.025576273
86	0x3b65e8bd	0.003508135
87	0xbe4bc611	-0.19899775
88	0xbd22bdac	-0.039731666
89	0xbdc02c9f	-0.09383511
90	0x3de7abfe	0.11312102
91	0x3e00e418	0.12587011
92	0x3d92e043	0.07171681
93	0x3df7eff5	0.12106315
94	0xbde06b17	-0.10957926
95	0xbd79254d	-0.06082659
96	0xbd96e7a5	-0.073684014
97	0xbd2d7841	-0.04235101
98	0x3e087015	0.13324006
99	0x3d4c6ce9	0.049908552
100	0x3e0cacd7	0.13737808
101	0x3c8ed194	0.017433919
102	0xbe1c03bb	-0.15235798
103	0xbd521258	-0.051287025
104	0x3dfe7058	0.124237716
105	0x3dc06907	0.093950324
106	0x3d4d4cc1	0.050122026
107	0xbd608d96	-0.054822527
108	0xbe2a3eb9	-0.1662549
109	0xbdc0afdb	-0.09408542
110	0x3db265d4	0.087108284
111	0xbd9207f6	-0.07130425
112	0x3d83a20e	0.06427394
113	0x3d45b3f1	0.04826731
114	0xbd8b0df1	-0.067897685
115	0x3df058e1	0.11735702
116	0xbd6e4bda	-0.058177806
117	0xbc05a61d	-0.00815728
118	0xbd89e7be	-0.067336544
119	0xbe240358	-0.160169
120	0x3ce97f73	0.028503155
121	0x3d712537	0.05887338
122	0xbdbc8114	-0.09204307
123	0x3dde176b	0.108443104
124	0xbe27532c	-0.16340321
125	0xbe2e7f97	-0.17040859
126	0xbddf9ce1	-0.10918594
127	0xbd87ba37	-0.066273145
128	0xbca34075	-0.019928196
129	0xbcf029e3	-0.029316848
130	0x3da4bece	0.080442056
131	0xbe1f05eb	-0.15529601
132	0x3cd7ce5d	0.026343519
133	0x3c7f348f	0.015576496
134	0x3d5032ba	0.050829627
135	0x3e33f29d	0.17573018
136	0x3dded0ef	0.10879695
137	0xbdc50817	-0.09620684
138	0xbe14800e	-0.14501974
139	0xbd30c863	-0.043159854
140	0xbdb6316d	-0.08896146
141	0x3de16cea	0.11007102
142	0x3aacdc4c	0.0013188212
143	0x3e11991e	0.14218566
144	0x3dc93ff8	0.09826654
145	0xbd0522e6	-0.032503985
146	0x3bc7178c	0.006075805
147	0x3d196bc9	0.037456308
148	0xbcb78517	-0.02240233
149	0x3e086ccc	0.13322753
150	0xbe0d8a00	-0.13822174
151	0x3dba3e1d	0.090938784
152	0xbde6c783	-0.112685226
153	0xbe1f4cb5	-0.15556605
154	0xbd1652f2	-0.036700197
155	0x3db06c58	0.08614415
156	0x3dff9b51	0.12480796
157	0x3d35b3a6	0.04436078
158	0xbc7a533b	-0.015278633
159	0x3bb7e494	0.0056119654
160	0xbc100070	-0.008789167
161	0xbb3ae0c9	-0.002851533
162	0x3d4fde55	0.05074914
163	0x3e412427	0.18861447
164	0x3e2a1f17	0.16613422
165	0xbe0bd3c2	-0.13654998
166	0x3d0732ea	0.03300754
167	0xbddeadd8	-0.10873002
168	0xbce5e1a0	-0.028061688
169	0xbdb3d341	-0.08780528
170	0x3ddeab83	0.10872557
171	0xbd859cb8	-0.06524032
172	0x3e7176e9	0.23580517
173	0x3e3df302	0.18549731
174	0xbd70dca7	-0.05880418
175	0xbe2a6c55	-0.16642888
176	0x3d0f5387	0.034991767
177	0xbd4a209d	-0.04934751
178	0x3d5490a4	0.051895753
179	0xbde0d7d1	-0.10978664
180	0x3e09c5a3	0.13454299
181	0xbde17353	-0.110083245
182	0xbdbf12bb	-0.093297444
183	0xbd7fa901	-0.062417034
184	0x3daf2ff8	0.08554071
185	0x3b552f57	0.0032529437
186	0xbddc2651	-0.10749496
187	0xbdcec47d	-0.10096071
188	0xbc9fcc92	-0.019506726
189	0xbe27f481	-0.16401865
190	0x3cb96e82	0.022635702
191	0x3da0949c	0.07840845
192	0x3d010a8a	0.03150419
193	0xbd60fcaa	-0.05492846
194	0x3d807342	0.06271984
195	0xbdd30a02	-0.10304643
196	0xbd32d7e9	-0.04366294
197	0x3b544bd8	0.003239384
198	0x3e410019	0.18847694
199	0xbd5ea8ea	-0.054360308
200	0x3db372a9	0.08762104
201	0xbc73d652	-0.014882641
202	0x3c8919c4	0.016735919
203	0xbdd55d65	-0.10418204
204	0x3e559249	0.20856585
205	0x3e2a21a3	0.16614394
206	0x3d769189	0.060197387
207	0x3de60747	0.11231857
208	0x3e078c76	0.13237175
209	0x3db3d4ba	0.08780809
210	0x3dba74f7	0.091043405
211	0xbe226b47	-0.15861236
212	0xbdd2767d	-0.10276506
213	0xbdb9f108	-0.09079176
214	0x3d627b22	0.05529321
215	0xbdfbfef8	-0.12304491
216	0xbe0a2e1e	-0.13494155
217	0xbd9f9948	-0.07792908
218	0xbdcb836d	-0.09937177
219	0x3979c36c	0.00023819291
220	0x3db69f9c	0.08917162
221	0xbdd3dd7d	-0.1034498
222	0x3ded0ce6	0.11574726
223	0xbd67b788	-0.056571513
224	0xbb1f9725	-0.0024351564
225	0x3e066ce5	0.13127477
226	0x3e4bcde6	0.19902763
227	0x3c89aa8d	0.016804958
228	0xbda43324	-0.08017567
229	0xbdc3d978	-0.09562963
230	0x3d612ee0	0.054976344
231	0x3dd4396f	0.10362517
232	0x3db43d31	0.08800734
233	0xbd29b281	-0.04143
234	0xbdf5d957	-0.12004345
235	0xbdddc032	-0.10827674
236	0xbc2e1cb0	-0.010626957
237	0xbc86d301	-0.016458036
238	0xbd0284bb	-0.031864863
239	0xbe0f2208	-0.13977826
240	0xbc3944f2	-0.011307942
241	0xbe0faeb3	-0.14031486
242	0xbe0b0256	-0.1357511
243	0xbe08f1a4	-0.13373429
244	0xbae84f97	-0.0017723915
245	0x3e3a90e1	0.1821933
246	0x3d8d8725	0.069105424
247	0x3c225d4c	0.009909939
248	0x3d1505f5	0.036382634
249	0x3da060f5	0.07830993
250	0x3d440c3b	0.047863226
251	0xbe12016c	-0.14258355
252	0xbd7f1d04	-0.06228353
253	0xbdf5f3b4	-0.12009373
254	0xbb93167f	-0.0044887657
255	0xbe353855	-0.1769727

decoder.2.bias f4 [30]
0	0x3de722ea	0.11285956
1	0xbdd20a87	-0.10255914
2	0x3b83a77b	0.004017768
3	0x3b6b1668	0.003587151
4	0xbe08d8d6	-0.13363966
5	0xbc1c3d70	-0.009536132
6	0x3e599ba6	0.21250781
7	0x3d8e3b8d	0.06944952
8	0x3d5ae8ad	0.053444553
9	0xbda0a392	-0.078436986
10	0x3e180e5d	0.14849229
11	0xbc8bba6d	-0.017056668
12	0xbdd2e1dc	-0.102969855
13	0x3d45910d	0.048234034
14	0xbda6986e	-0.081345424
15	0xbd459d14	-0.048245504
16	0xbc2f5cc7	-0.010703272
17	0xbc6c9538	-0.014439873
18	0xbd4f7028	-0.05064407
19	0x3df7fd02	0.12108804
20	0xbe52e5cc	-0.20595473
21	0x3d4c310f	0.049851473
22	0x3e42ed05	0.19035728
23	0x3c0e7bba	0.008696491
24	0xbd422b79	-0.04740474
25	0xbe1e623c	-0.15467161
26	0x3d9bc808	0.07606512
27	0x3e3ca33a	0.18421641
28	0x3e33f9a7	0.17575704
29	0x3d4b0661	0.04956663
